checkpoint.pth (torch_old, 28451 bytes, 6 tensors)

fc1.weight f4 [64, 37]
0.09660523 0.0020027077 -0.22448589 -0.3911761 -0.19030668 -0.031588323 0.05655415 0.26832107
-0.11354915 0.011531408 -0.06872156 -0.019448794 -0.17265272 -0.10898526 -0.016234918 -0.05080286
-0.012078891 0.12106003 -0.10019566 -0.020877918 0.016403323 0.036909394 0.015683914 0.07739916
0.14042899 -0.09371475 0.19477996 -0.081664376 -0.3685383 0.12526558 0.16261895 -0.27036142
-0.41255653 -0.46126214 -0.88316405 -0.07400228 -0.02536874 0.25489858 0.0071624094 -0.045115523
0.15554783 -0.34889287 0.025539335 -0.23320776 -0.11825582 -0.07022138 -0.24073613 0.03173672
-0.06449851 0.03303646 0.17833947 0.26197287 0.19065231 0.044822205 -0.09324833 -0.10745062
0.054768812 -0.072009474 -0.06245672 -0.15760082 -0.0590687 0.056502957 -0.007958829 0.0779791
-0.14758302 -0.004462787 0.086633176 0.14536637 0.1647265 0.08708208 -0.28398013 -0.09404278
0.0432907 0.008977296 -0.122677915 0.18167572 0.15098597 0.13433357 -0.086776 -0.22820954
0.20122908 0.14110215 0.051931653 0.11297143 0.0213948 0.018405931 -0.008091881 0.021489022
0.13077725 -0.18450442 0.1015524 0.0042355875 0.29401886 0.1352924 -0.10053087 0.024859827
0.022287486 -0.10824633 0.08245784 -0.48508847 0.23777404 0.29291674 0.1557785 -0.5123882
-0.12416852 -0.092715286 -0.13524601 0.024911202 0.19095807 0.025329886 -0.0034049575 0.073429406
0.076657966 0.17163196 -0.028938238 0.03476441 -0.053607687 0.057121195 0.13057281 0.027466798
-0.061805006 0.13726607 -0.015456535 0.084005736 -0.15303262 -0.23175983 -0.031189065 0.06110676
-0.07500628 -0.20495684 -0.07213783 0.22423662 -0.111270346 0.00038524097 -0.07175805 -0.38488975
0.08682663 -0.12186703 0.13816929 0.2084972 0.20425811 0.0776673 0.23408133 0.11133655
-0.14818665 -0.026947472 0.11880153 0.015361257 -0.0017976135 -0.048513573 -0.22001089 -0.2182188
-0.047500066 0.15358853 0.34864816 -0.18127456 -0.21002182 -0.39792654 0.1506947 0.012862363
-0.1246114 -0.18879333 -0.28616238 -0.04065415 -0.1270718 -0.034930658 0.06071274 0.19567817
-0.0620317 -0.033815738 0.049031455 0.14770177 0.409041 0.14651349 -0.02501156 -0.05715093
0.034689467 -0.009840187 0.18110344 -0.23409337 0.002550392 0.15024255 0.22724842 -0.04274503
0.020283943 -0.0026297488 -0.049439684 0.04486208 0.15022612 0.22027211 0.39073047 -0.012049568
-0.19454774 -0.41473687 -1.7102675 -0.0673357 -0.030964095 0.0015337599 0.005537706 0.048151992
-0.054479863 0.09897783 0.030302977 0.08895165 0.046187323 0.13208872 0.08430354 0.10870738
0.09299197 0.022932414 -0.0024722805 0.031521786 0.07221499 0.120920315 0.041569434 0.095775306
-0.08938331 -0.062284794 0.11900063 -0.028429488 0.015575234 0.0012774838 0.1173748 0.034761608
-0.116085924 -0.13076474 -0.44857788 -0.23602434 0.08274822 -0.076276824 0.20556524 0.34557137
-0.024034414 1.11122945e-05 0.14743249 0.0756823 0.084970765 -0.107370704 -0.10417832 0.07683337
0.25276574 0.3986189 -0.044144064 0.00429629 -0.023259252 0.17268611 0.101458095 -0.081154495
-0.10120671 0.059154954 0.0066457214 0.17860655 -0.12647495 0.08315318 -0.08855153 0.20705265
00000000: f6d8 c53d dc3f 033b a1df 65be 3c48 c8be
00000010: c1df 42be c262 01bd 53a5 673d 6161 893e
00000020: 758c e8bd 3bee 3c3c e4bd 8cbd 1453 9fbc
00000030: e0cb 30be aa33 dfbd 17ff 84bc a916 50bd
00000040: 8ae6 45bc 52ee f73d 6233 cdbd 2b08 abbc
00000050: 4360 863c 4e2e 173d 8d7b 803c 7383 9e3d
00000060: 9ecc 0f3e 85ed bfbd 6674 473e a73f a7bd
00000070: 0db1 bcbe 9f45 003e 9585 263e d06c 8abe
00000080: 9c3a d3be 8d2a ecbe 0a17 62bf 828e 97bd
00000090: 1bd2 cfbc 1182 823e a5b2 ea3b 0ecb 38bd
000000a0: ee47 1f3e 16a2 b2be de37 d13c 04ce 6ebe
000000b0: 1b30 f2bd 3ad0 8fbd 8883 76be 5dfe 013d
000000c0: cb17 84bd 3d51 073d 9f9e 363e 4f21 863e
000000d0: 5c3a 433e 7d97 373d fbf8 bebd 120f dcbd
000000e0: 4355 603d b479 93bd 9ed2 7fbd 1c62 21be
000000f0: 05f2 71bd a56f 673d c065 02bc 82b3 9f3d
00000100: 0120 17be 923c 92bb bc6c b13d ecda 143e
00000110: 10ae 283e 1758 b23d d865 91be 8099 c0bd
00000120: 9751 313d 8215 133c 8f3e fbbd 3309 3a3e
00000130: 119c 1a3e bd8e 093e 9eb7 b1bd c3af 69be
00000140: ff0e 4e3e 157d 103e 49b6 543d 915d e73d
00000150: 2644 af3c 09c8 963c cf93 04bc bf09 b03c
00000160: 79ea 053e baee 3cbe b4fa cf3d afca 8a3b
00000170: a489 963e 178a 0a3e 21e3 cdbd d6a6 cb3c
00000180: 3f94 b63c 40b0 ddbd a8df a83d 845d f8be
00000190: 0a7b 733e 2ff9 953e 6684 1f3e e02b 03bf
000001a0: 114c febd 83e1 bdbd ee7d 0abe 9412 cc3c
000001b0: 838a 433e 9f80 cf3c b525 5fbb 2862 963d
000001c0: dafe 9c3d 4ac0 2f3e e20f edbc 2065 0e3d
000001d0: bc93 5bbd eaf7 693d e1b4 053e 0d02 e13c
000001e0: 3f27 7dbd 7a8f 0c3e 683d 7dbc 330b ac3d
000001f0: 95b4 1cbe 7352 6dbe 3680 ffbc 154b 7a3d
00000200: e49c 99bd 35e0 51be 00bd 93bd 499e 653e
00000210: b5e1 e3bd 2bfa c939 e2f5 92bd 4510 c5be
00000220: 29d2 b13d 6c95 f9bd 407c 0d3e 4a80 553e
00000230: 0a29 513e 0910 9f3d 04b3 6f3e 6b04 e43d
00000240: 3ebe 17be f2c0 dcbc 374e f33d c8ad 7b3c
00000250: e69d ebba 2bb6 46bd 894a 61be c074 5fbe
00000260: 6e8f 42bd 5046 1d3e 0382 b23e 0aa0 39be
00000270: f60f 57be 07bd cbbe b64f 1a3e a9bc 523c
00000280: 4334 ffbd 0a53 41be e083 92be f784 26bd
00000290: 1c1f 02be 7313 0fbd ecad 783d dc5f 483e
000002a0: f414 7ebd 5f82 0abd 35d5 483d 223f 173e
000002b0: d26d d13e a207 163e 0be5 ccbc 1817 6abd
000002c0: 8b16 0e3d bc38 21bc 2e73 393e 2cb6 6fbe
000002d0: 7a24 273b 2fd9 193e cfb3 683e 6a15 2fbd
000002e0: 832a a63c dd57 2cbb 4481 4abd 4dc1 373d
000002f0: e0d4 193e 038f 613e d30d c83e 8d6b 45bc
00000300: 8637 47be 6458 d4be 0cea dabf 4de7 89bd
00000310: 6aa8 fdbc 7108 c93a a575 b53b 063b 453d
00000320: 4726 5fbd e3b4 ca3d f33d f83c 482c b63d
00000330: eb2e 3d3d 4442 073e 56a7 ac3d faa1 de3d
00000340: 9372 be3d c2dc bb3c fc05 22bb fd1c 013d
00000350: 74e5 933d 12a5 f73d b644 2a3d d825 c43d
00000360: 990e b7bd 571e 7fbd 9ab6 f33d f5e4 e8bc
00000370: 442f 7f3c 3e71 a73a 3362 f03d 3062 0e3d
00000380: 75be edbd 31e7 05be 00ac e5be 5db0 71be
00000390: e677 a93d 0637 9cbd b27f 523e bbee b03e
000003a0: d2e3 c4bc f16e 3a37 8bf8 163e 52ff 9a3d
000003b0: 2705 ae3d 2ce5 dbbd 715b d5bd d05a 9d3d
000003c0: 836a 813e c717 cc3e 68d0 34bd e5c7 8c3b
000003d0: 308a bebc a1d4 303e 43c9 cf3d 5434 a6bd
000003e0: 7745 cfbd 774c 723d 5ac4 d93b a3e4 363e
000003f0: a682 01be 374c aa3d 815a b5bd 9c05 543e

fc1.bias f4 [64]
0.090079635 -0.029397335 -0.17256296 -0.005422639 0.19887392 0.035139497 -0.07031548 0.041648187
-0.032579068 -0.18767469 0.13630211 0.17528692 0.1806637 0.15131769 -0.001553252 -0.017306862
0.039661024 0.066757955 -0.021184789 -0.2433485 -0.20817083 0.033736713 0.018349113 -0.02584143
-0.0815753 0.062513195 -0.05685214 -0.15698424 0.17547722 0.09892448 0.043707106 -0.09594828
0.08490561 0.067381315 -0.14699407 0.014812988 -0.040427648 0.03461745 0.0027666527 -0.12616543
-0.07199856 0.030400788 -0.1275418 0.114669986 -0.021926763 -0.0908019 0.043775328 -0.15897079
-0.12784366 -0.07177119 -0.19673839 0.04498157 -0.013569831 -0.10876257 -0.19479667 0.061088208
0.11720217 -0.032038208 -0.20928997 -0.11234281 -0.007312781 0.030535128 0.0470285 0.04667864
00000000: ac7b b83d aed2 f0bc 58b4 30be 65b0 b1bb
00000010: 9ba5 4b3e 6fee 0f3d 9001 90bd 4a97 2a3d
00000020: a171 05bd cb2d 40be c892 0b3e 6a7e 333e
00000030: e8ff 383e 06f3 1a3e 7d96 cbba 1fc7 8dbc
00000040: 9973 223d 65b8 883d b98b adbc 5930 79be
00000050: bc2a 55be 822f 0a3d e150 963c 68b1 d3bc
00000060: f310 a7bd eb06 803d cadd 68bd 7ac0 20be
00000070: 4db0 333e eb98 ca3d 3906 333d 8880 c4bd
00000080: fee2 ad3d 37ff 893d 9d85 16be 2db2 723c
00000090: 7697 25bd 07cb 0d3d bb50 353b 8331 01be
000000a0: fb73 93bd 130b f93c 519a 02be 19d8 ea3d
000000b0: c19f b3bc 59f6 b9bd c24d 333d 3dc9 22be
000000c0: 73e9 02be c6fc 92bd ca75 49be 983e 383d
000000d0: ff53 5ebc e9be debd c778 47be a137 7a3d
000000e0: b107 f03d 7f3a 03bd 1c50 56be fd13 e6bd
000000f0: 0ea0 efbb ce24 fa3c f5a0 403d 1a32 3f3d

fc2.weight f4 [64, 64]
0.16325177 -0.08010774 -0.021906184 0.19515811 -0.05869454 -0.07315836 -0.37636453 -0.029353037
0.026496457 -0.0813909 0.045261104 -0.06405712 -0.013964767 -0.05551548 -0.27880594 -0.13600205
-0.5297417 0.052885506 0.03110796 -0.062660314 -0.06161275 0.07458968 -0.044617742 -0.2762233
0.108819224 -0.084709644 0.2501927 -0.354985 -0.04373181 -0.13551363 0.1750376 -0.5275695
0.08960032 0.104711436 0.12936859 0.09609306 0.07474997 -0.03115273 0.33149663 0.03765438
-0.17333218 0.24592055 0.4729617 -0.1358249 -0.098253936 -0.22392263 -0.20493187 -0.12853643
-0.060492568 -0.21707018 -0.22200972 0.09216128 0.012781655 -0.06997674 -0.4108506 0.0019028593
0.019720174 -0.0032033692 -0.189638 -0.06697449 -0.07128902 0.17937712 0.04307265 -0.11655976
0.12533794 0.08260171 -0.0015090392 0.07970064 -0.042510156 -0.051929135 -0.14177611 -0.09380322
0.031302273 -0.096589714 0.040103894 -0.0034269157 0.09365448 -0.03495788 -0.03832976 -0.09420589
0.041622836 0.61257386 0.13449496 -0.21970063 0.022995481 0.049770977 0.0634367 -0.1281321
-0.21822903 0.35750183 0.01022497 -0.05931535 -0.083445355 -0.04624625 -0.083525024 -0.16467774
0.11409205 -0.011266494 -0.047202405 0.05895172 -0.05799839 -0.08099305 -0.098402366 0.054912865
-0.2672683 -0.057950642 0.4340884 -0.05693692 -0.048250828 -0.23617043 -0.062129673 -0.03879321
0.013850424 -0.2668339 -0.07957319 0.15869415 -0.17072785 -0.029066652 -0.61044705 0.16464894
-0.2258776 -0.03815385 0.06096221 -0.16103356 -0.13945101 -0.21375836 -0.050738674 -0.1366093
-0.2172154 -0.1209715 -0.104748964 0.06420888 -0.061552674 0.2996427 -0.15722787 0.0010783017
-0.056610744 -0.4545978 -0.25513893 -0.02981758 -0.031011526 -0.027368484 0.16530919 0.022789206
-0.22719531 -0.13627829 0.050399866 0.0024146659 -0.29180953 0.14738537 0.20865583 -0.13361163
-0.13931547 -0.11995894 0.21514238 -0.057989035 -0.3536135 0.20388947 0.04232429 -0.27520666
-0.24515092 -0.08736863 -0.32516316 -0.15569808 0.20707537 0.23257284 0.053558115 -0.25489366
0.082606256 -0.36406937 -0.19464147 -0.21529174 0.06738305 0.122238815 -0.42425248 -0.10782021
0.18779452 -0.08235899 -0.47092918 -0.1671222 -0.32716933 -0.045536578 -0.12088308 -0.30165645
0.011512296 -0.15109037 0.03677194 0.27463308 -0.15911189 0.020689989 0.21920648 0.072260216
-0.3219246 -0.41182944 -0.11960142 -0.13534312 -0.1448665 -0.015705366 -0.4518016 -0.3956553
0.14178418 -0.1952403 0.23602135 0.21608587 -0.13180785 -0.14813627 0.2723584 0.094474316
-0.46087608 -0.23573953 -0.2936227 -0.1109069 0.14636268 0.09107548 -0.11681977 0.059073362
0.05826652 -0.17874263 -0.17258023 -0.12116403 0.16617025 -0.26283208 0.22830379 -0.26082465
0.06739363 -0.0109080365 -0.07842473 0.2518129 -0.44080615 0.10732346 0.12657785 -0.064619824
-0.22298397 0.27354497 0.2158427 0.012459647 0.12741691 0.01933742 -0.074333675 -0.039824586
-0.16487178 -0.14435098 -0.19430523 0.13373922 0.035848692 0.27863204 -0.16018225 -0.07199746
0.012394778 -0.21720682 -0.30675414 0.20765549 -0.1563698 -0.0044892873 -0.0038335163 -0.10665835
00000000: 792b 273e 870f a4bd 9974 b3bc 87d7 473e
00000010: b069 70bd 0dd4 95bd dab2 c0be c875 f0bc
00000020: 190f d93c 46b0 a6bd b563 393d 6130 83bd
00000030: 7acc 64bc 3364 63bd a7bf 8ebe 1f44 0bbe
00000040: 279d 07bf 799e 583d 1fd6 fe3c 0d54 80bd
00000050: a75d 7cbd 79c2 983d 18c1 36bd 246d 8dbe
00000060: 9ddc de3d 407c adbd 4219 803e 98c0 b5be
00000070: 2020 33bd 16c4 0abe 0e3d 333e cb0e 07bf
00000080: 5f80 b73d f372 d63d 3379 043e 70cc c43d
00000090: 8316 993d 0334 ffbc edb9 a93e 7b3b 1a3d
000000a0: fe7d 31be 99d2 7b3e 0928 f23e af15 0bbe
000000b0: 5c39 c9bd f94b 65be a9d9 51be 0e9f 03be
000000c0: 0ec7 77bd a547 5ebe 8456 63be 0ebf bc3d
000000d0: 266a 513c f74f 8fbd 035b d2be 5d69 f93a
000000e0: 348c a13c 9eef 51bb 7730 42be ec29 89bd
000000f0: faff 91bd a3ae 373e f26c 303d e2b6 eebd
00000100: 9758 003e 162b a93d f4ca c5ba 173a a33d
00000110: 211f 2ebd a5b3 54bd c22d 11be e71b c0bd
00000120: d036 003d d4d0 c5bd fb43 243d 1b96 60bb
00000130: eccd bf3d fe2f 0fbd abff 1cbd 05ef c0bd
00000140: b57c 2a3d a4d1 1c3f 0cb9 093e 34f9 60be
00000150: 0561 bc3c a7dc 4b3d 1aeb 813d 1035 03be
00000160: 6e77 5fbe 7b0a b73e a286 273c a7f4 72bd
00000170: 66e5 aabd b56c 3dbd 2b0f abbd 48a1 28be
00000180: 18a9 e93d 1a97 38bc 4f57 41bd 5c77 713d
00000190: b88f 6dbd afdf a5bd 2e87 c9bd 50ec 603d
000001a0: 64d7 88be a75d 6dbd d640 de3e b036 69bd
000001b0: a9a2 45bd a9d6 71be af7b 7ebd a1e5 1ebd
000001c0: e4ec 623c 749e 88be 45f7 a2bd b880 223e
000001d0: 48d3 2ebe 301d eebc 4246 1cbf bb99 283e
000001e0: 754c 67be 3647 1cbd 83b3 793d fbe5 24be
000001f0: 3fcc 0ebe 79e3 5abe 5bd3 4fbd 4fe3 0bbe
00000200: b76d 5ebe e8bf f7bd a086 d6bd f27f 833d
00000210: a81e 7cbd c56a 993e 5800 21be cd55 8d3a
00000220: abe0 67bd 0bc1 e8be 92a1 82be ff43 f4bc
00000230: e20b febc df33 e0bc d046 293e 6eb0 ba3c
00000240: e3a5 68be 898c 0bbe 1770 4e3d 5f3f 1e3b
00000250: 0f68 95be 31ec 163e e0a9 553e 7dd1 08be
00000260: b7a8 0ebe 08ad f5bd 494e 5c3e e985 6dbd
00000270: d40c b5be 67c8 503e 3c5c 2d3d e3e7 8cbe
00000280: d808 7bbe 53ee b2bd c97b a6be 516f 1fbe
00000290: 910b 543e 9327 6e3e c15f 5b3d 6c81 82be
000002a0: 782d a93d 4d67 babe 1850 47be 7075 5cbe
000002b0: 2000 8a3d 5858 fa3d 9f37 d9be d8d0 dcbd
000002c0: 354d 403e d5ab a8bd a11d f1be 1522 2bbe
000002d0: bd82 a7be 9084 3abd 8c91 f7bd b772 9abe
000002e0: 129e 3c3c 6fb7 1abe 2c9e 163d b59c 8c3e
000002f0: 3aee 22be 0d7e a93c aa77 603e 2afd 933d
00000300: 4dd3 a4be 4fdb d2be 97f1 f4bd 6397 0abe
00000310: e257 14be 8aa8 80bc 8a52 e7be 5593 cabe
00000320: df2f 113e 13ed 47be 95af 713e 9d45 5d3e
00000330: a3f8 06be 09b1 17be 8f72 8b3e c07b c13d
00000340: f3f7 ebbe b465 71be b755 96be 2823 e3bd
00000350: 19e0 153e c885 ba3d 343f efbd e9f6 713d
00000360: e0a8 6e3d 4f08 37be dfb8 30be d924 f8bd
00000370: 8928 2a3e ed91 86be 78c8 693e cf8a 85be
00000380: ac05 8a3d 9fb7 32bc 259d a0bd 9fed 803e
00000390: 58b1 e1be 67cc db3d a09d 013e 6657 84bd
000003a0: e955 64be 160e 8c3e de05 5d3e 8c23 4c3c
000003b0: 9479 023e 8269 9e3c 413c 98bd 1b1f 23bd
000003c0: 26d4 28be bed0 13be f3f7 46be eff2 083e
000003d0: 14d6 123d dca8 8e3e d106 24be 6873 93bd
000003e0: 7813 4b3c 776b 5ebe e10e 9dbe a4a3 543e
000003f0: 681f 20be df1a 93bb bb3b 7bbb b16f dabd

fc2.bias f4 [64]
-0.097483456 -0.08930688 0.061394807 -0.015643708 0.08148773 -0.0317913 0.033765238 -0.03183424
0.1674922 0.4887061 -0.046239935 0.09795393 0.31960836 -0.12342972 -0.06705842 0.014284665
0.009148539 -0.162546 -0.019659143 0.16473536 0.10031357 0.5345196 -0.12721339 -0.12271172
-0.08539395 -0.081018575 -0.0062880265 -0.20657559 -0.022307351 0.08734835 0.024179837 -0.16102974
0.041809857 0.16334386 -0.015604951 0.04164056 -0.063440256 -0.18945329 0.1173877 0.10093898
-0.084833756 0.48416325 0.39346683 -0.053356815 0.014181945 -0.072732374 0.06881238 -0.030639045
0.102335185 -0.119572975 -0.10841999 0.27030715 -0.07245611 -0.07457567 0.05100095 -0.04423963
-0.20555593 -0.07841174 0.029029492 -0.14169131 -0.03132741 0.04771026 0.05104508 -0.07225736
00000000: 68a5 c7bd 87e6 b6bd 1f79 7b3d 3c27 80bc
00000010: 0ae3 a63d 9837 02bd 6b4d 0a3d 9f64 02bd
00000020: 1383 2b3e b037 fa3e 1666 3dbd 129c c83d
00000030: b5a3 a33e b9c8 fcbd ed55 89bd 3a0a 6a3c
00000040: c1e3 153c 7572 26be 360c a1bc 63b0 283e
00000050: 3371 cd3d 47d6 083f 3a44 02be 4850 fbbd
00000060: 06e3 aebd 11ed a5bd ca0b cebb 8d88 53be
00000070: e8bd b6bc b1e3 b23d cb14 c63c fbe4 24be
00000080: d040 2b3d 9d43 273e e9ab 7fbc 4b8f 2a3d
00000090: f7ec 81bd 0b00 42be f668 f03d 19b9 ce3d
000000a0: 52bd adbd 3fe4 f73e 7c74 c93e ad8c 5abd
000000b0: 635b 683c b6f4 94bd 81ed 8c3d bcfe fabc
000000c0: 1c95 d13d ade2 f4bd 4d0b debd b365 8a3e
000000d0: de63 94bd 21bb 98bd 5fe6 503d 9d34 35bd
000000e0: 417d 52be 5696 a0bd 42cf ed3c 8717 11be
000000f0: 2c51 00bd d56b 433d a514 513d abfb 93bd

fc3.weight f4 [4, 64]
-0.30271587 0.3863383 0.1029345 -0.06990891 0.13195181 0.19165608 0.27572522 -0.26970422
0.24763846 0.17761703 0.37962955 0.2136259 0.18312904 -0.28853834 0.068748936 -0.18859945
-0.06832176 -0.19649038 0.007011765 0.19376983 0.061209504 0.18279774 0.048519056 -0.20015754
0.57479745 -0.10956826 -0.2628323 -0.34479082 -0.065247715 0.022792283 -0.27304414 0.08299216
0.36147398 0.22634783 0.32727045 -0.085199945 0.16654402 0.20176943 0.026473671 0.18014759
0.081564866 0.19858879 0.1128155 0.10852964 0.259101 -0.013779238 0.17363803 0.483257
0.0051190825 0.08417415 -0.079324335 0.51003337 0.12606123 0.42954132 0.006337022 0.19549298
-0.17143041 0.049738545 0.30496567 -0.05568061 -0.14440556 0.33979788 0.13745207 -0.17226803
-0.0008925854 0.30305085 0.36655146 -0.3130627 0.44381434 0.1748904 0.15831481 -0.06731353
0.19242619 0.1739496 0.228427 0.30606318 0.16735597 0.0693229 -0.17000581 -0.07903897
0.2426242 -0.10516828 -0.22733682 0.13532306 0.12179513 0.2407628 0.012078401 -0.11472235
0.5534287 -0.22145948 -0.13919462 -0.25762832 0.036028553 0.07310976 0.2573971 0.22694452
0.27661306 0.23731743 0.32755092 0.02851215 0.24956778 0.42673612 0.114525445 0.09263351
-0.20723195 0.13941792 0.087079786 0.20568764 0.23951244 -0.071365915 0.18596798 0.2920396
-0.0036782671 0.25197312 0.027368857 0.3305729 0.28864986 0.5956525 0.1587167 0.1813443
-0.3350754 0.0021904588 0.07909116 -0.15683188 -0.27207366 0.29624403 -0.106805675 -0.0316223
-0.18832585 0.4870447 0.3165412 -0.052018594 0.5753389 0.13408557 0.12517379 0.121820316
0.12450183 0.17291111 0.22582392 0.6040346 0.2107578 -0.3005072 0.23832598 -0.07433121
0.41019878 0.10339832 -0.19587295 0.064741544 -0.014032622 0.22399716 -0.2555773 0.13634698
0.7398712 -0.37057334 0.042387843 -0.2837132 -0.31329173 0.1779343 -0.046759732 -0.4423603
0.08961441 -0.09351158 0.4827562 0.22489665 0.1039795 -0.15606652 0.13120353 0.118959114
-0.1673156 0.18553232 0.1921597 0.41469344 0.19845504 -0.034671094 0.13813023 0.4065108
0.17637901 0.04141529 0.15207402 0.35871425 0.03031909 -0.058805965 0.1494687 0.25751054
-0.24017057 -0.36825952 -0.058141094 -0.20806324 -0.2615317 0.2229813 -0.4512161 -0.36028066
0.23576687 0.39355242 0.2876855 -0.32216066 -0.2287659 0.21403956 -0.105990164 0.01222251
0.2490984 0.16910952 0.46260843 0.33009887 0.2074179 0.021501724 -0.09574879 -0.11509304
0.43968555 0.15319705 0.20998463 0.18098806 0.010823133 0.241578 -0.1891793 -0.13605998
0.37550053 -0.32101125 -0.14649379 -0.07678631 0.09550511 -0.0557958 -0.47808048 0.058479395
0.26327166 -0.023388743 0.094437726 0.107299626 -0.03551855 0.526067 0.19380385 0.11688202
-0.600115 0.1888808 0.14915438 0.10549398 0.404363 -0.30274403 0.08711233 0.33129373
0.09898007 -0.058774672 0.32335392 0.31833842 0.54837865 0.44087514 0.13303895 0.2855696
-0.1587631 -0.2903701 -0.40228644 -0.23878105 -0.2426437 0.49756652 -0.13901575 0.12564468
00000000: 93fd 9abe 22ce c53e 53cf d23d 672c 8fbd
00000010: 601e 073e 7e41 443e db2b 8d3e ac16 8abe
00000020: f094 7d3e 3de1 353e ce5e c23e bfc0 5a3e
00000030: 2e86 3b3e 4cbb 93be 3ecc 8c3d 3720 41be
00000040: 47ec 8bbd c634 49be f3c2 e53b 996b 463e
00000050: d1b6 7a3d 552f 3b3e ebbb 463d 19f6 4cbe
00000060: ed25 133f 5365 e0bd f591 86be 6c88 b0be
00000070: 98a0 85bd e2b6 ba3c 71cc 8bbe cbf7 a93d
00000080: 1e13 b93e bac7 673e fe8f a73e 4f7d aebd
00000090: 848a 2a3e a59c 4e3e 50df d83c 9c78 383e
000000a0: 7b0b a73d dc5a 4b3e d00b e73d ca44 de3d
000000b0: e3a8 843e 50c2 61bc 2bce 313e 766d f73e
000000c0: fabd a73b 7f63 ac3d cc74 a2bd 8c91 023f
000000d0: 3216 013e d7ec db3e cba6 cf3b 502f 483e
000000e0: 748b 2fbe a5ba 4b3d 7624 9c3e 5a11 64bd
000000f0: 0ddf 13be fdf9 ad3e 3cc0 0c3e 0867 30be
00000100: 64fc 69ba 7b29 9b3e a2ac bb3e c149 a0be
00000110: a23b e33e 7816 333e 471d 223e addb 89bd
00000120: 5f0b 453e d81f 323e c4e8 693e 50b4 9c3e
00000130: 5d5f 2b3e 2af9 8d3d 0116 2ebe 2fdf a1bd
00000140: 7a72 783e 7862 d7bd fcca 68be 2192 0a3e
00000150: ba6f f93d 868a 763e 7ce4 453c 8df3 eabd
00000160: 81ad 0d3f 46c6 62be 0989 0ebe dce7 83be
00000170: ad92 133d 92ba 953d 8dc9 833e 2564 683e
00000180: 3aa0 8d3e 5703 733e c1b4 a73e 5092 e93c
00000190: b28e 7f3e 287d da3e 518c ea3d a3b6 bd3d
000001a0: 9d34 54be 92c3 0e3e e356 b23d c89f 523e
000001b0: c042 753e 4b28 92bd 646e 3e3e 3786 953e
000001c0: 150f 71bb 9f02 813e a734 e03c da40 a93e
000001d0: eac9 933e af7c 183f a186 223e 52b2 393e
000001e0: 018f abbe cd8d 0f3b 8cfa a13d 8998 20be
000001f0: 3d4d 8bbe 4cad 973e efbc dabd 6386 01bd
00000200: 7ed8 40be ec5d f93e b011 a23e 7311 55bd
00000210: 6949 133f ba4d 093e 8f2d 003e ee7c f93d
00000220: d1fa fe3d 9c0f 313e 633e 673e 03a2 1a3f
00000230: e5d0 573e 14dc 99be ba0b 743e f63a 98bd
00000240: 9305 d23e 80c2 d33d eb92 48be 3797 843d
00000250: 15e9 65bc 835f 653e 07db 82be 8b9e 0b3e
00000260: 3368 3d3f cabb bdbe e09e 2d3d db42 91be
00000270: c667 a0be 6934 363e 2287 3fbd 0d7d e2be
00000280: c387 b73d 0083 bfbd d22b f73e 4f4b 663e
00000290: 34f3 d43d e7cf 1fbe 385a 063e d6a0 f33d
000002a0: c854 2bbe 2ffc 3d3e 83c5 443e b352 d43e
000002b0: cc37 4b3e 4703 0ebd 0372 0d3e 2f22 d03e
000002c0: b39c 343e 14a3 293d 4bb9 1b3e 65a9 b73e
000002d0: bd5f f83c 86de 70bd 530e 193e 6cd8 833e
000002e0: 46ef 75be 838c bcbe 5b25 6ebd 880e 55be
000002f0: 7ce7 85be 3655 643e cc05 e7be b576 b8be
00000300: df6c 713e b47f c93e 844b 933e 3ef2 a4be
00000310: 9c41 6abe 302d 5b3e 5f11 d9bd ec40 483c
00000320: a713 7f3e 0c2b 2d3e 03db ec3e b802 a93e
00000330: 5c65 543e 6224 b03c f117 c4bd e6b5 ebbd
00000340: 771e e13e b0df 1c3e 3606 573e ef54 393e
00000350: 8353 313c 3960 773e 38b8 41be 4f53 0bbe
00000360: 9b41 c03e 965b a4be 7802 16be 2442 9dbd
00000370: 2f98 c33d 238a 64bd f7c6 f4be 1788 6f3d
00000380: 8bcb 863e c099 bfbc 9168 c13d e8bf db3d
00000390: e67b 11bd 54ac 063f 8474 463e d75f ef3d
000003a0: 23a1 19bf f869 413e edbb 183e 3a0d d83d
000003b0: ab08 cf3e 4401 9bbe f367 b23d 559f a93e
000003c0: 10b6 ca3d b6bd 70bd a58e a53e 41fd a23e
000003d0: 8b62 0c3f 63ba e13e 5d3b 083e 2e36 923e
000003e0: cb92 22be 64ab 94be 7df8 cdbe 0583 74be
000003f0: 9777 78be 0ac1 fe3e 255a 0ebe 00a9 003e

fc3.bias f4 [4]
0.28170988 0.24985306 0.1834799 0.21933411
00000000: 473c 903e 7bd9 7f3e 28e2 3b3e 1f99 603e
